Layer name, IFMAP Height, IFMAP Width, Filter Height, Filter Width, Channels, Num Filter, Strides,
MF_Embedding_user, 1, 1, 1, 1, 2875, 8, 1,
MLP_Embedding_user, 1, 1, 1, 1, 11500, 32, 1,
MLP_FC1, 1, 1, 1, 1, 6, 32, 1,
MLP_FC2, 1, 1, 1, 1, 2, 16, 1,
MLP_FC3, 1, 1, 1, 1, 1, 8, 1,
Predict_FC, 1, 1, 1, 1, 1, 1, 1,
