Layer name, IFMAP Height, IFMAP Width, Filter Height, Filter Width, Channels, Num Filter, Strides,
Conv, 12,  19,  3,  3, 17, 256,  1,
Res_conv1, 12,  19,  3,  3, 256, 256,  1,
Res_conv2, 12,  19,  3,  3, 256, 256,  1,
ValueHead_conv, 10,  19,  1,  1, 3, 1,  1,
ValueHead_FC1, 1,  1,  1,  1, 361, 256,  1,
ValueHead_FC2, 1,  1,  1,  1, 3, 1,  1,
PolicyHead_Conv, 10,  19,  1,  1, 6, 2,  1,
PolidyHead_FC, 1,  1,  1,  1, 722, 362,  1,
